…
ult.h5&#39;.format( params[&#39;experiment_name&#39;])) . And here is a visual plot of the model made using the Netron application. . . Here is a text version of the model&#39;s architecture made with Keras itself. . default_model.summary( line_length=120) . Model: &#34;sequential&#34; ________________________________________________________________________________________________________________________ Layer (type) Output Shape Param # ======================================================================================================================== lstm_x_bidirectional (Bidirectional) (None, 64) 35328 ________________________________________________________________________________________________________________________ repeat_vector (RepeatVector) (None, 13, 64) 0 ________________________________________________________________________________________________________________________ lstm_0_bidirectional (Bidirectional) (None, 13, 64) 66048 ________________________________________________________________________________________________________________________ dense_1_timedistributed (TimeDistributed) (None, 13, 32) 2080 ________________________________________________________________________________________________________________________ dense_1_dropout (Dropout) (None, 13, 32) 0 ________________________________________________________________________________________________________________________ dense_0_timedistributed (TimeDistributed) (None, 13, 8) 264 ________________________________________________________________________________________________________________________ dense_0_dropout (Dropout) (None, 13, 8) 0 ________________________________________________________________________________________________________________________ dense_output_timedistributed (TimeDistributed) (None, 13, 1) 9 ======================================================================================================================== Total params: 103,729 Trainable params: 103,729 Non-trainable params: 0 ________________________________________________________________________________________________________________________ . We can see the optimization process on the chart below. . def plot_model_history(hi
…
