…
kc.TerminateOnNaN() ], verbose=2) . It is a good time to save our model for future use: . model.save( &#39;./.models/{0}.h5&#39;.format( params[&#39;experiment_name&#39;])) . Here is a description of the model&#39;s architecture: . model.summary( line_length=120) . Model: &#34;sequential&#34; ________________________________________________________________________________________________________________________ Layer (type) Output Shape Param # ======================================================================================================================== bidirectional (Bidirectional) (None, 160) 54400 ________________________________________________________________________________________________________________________ repeat_vector (RepeatVector) (None, 13, 160) 0 ________________________________________________________________________________________________________________________ bidirectional_1 (Bidirectional) (None, 13, 184) 186208 ________________________________________________________________________________________________________________________ time_distributed (TimeDistributed) (None, 13, 160) 29600 ________________________________________________________________________________________________________________________ dense_3_dropout (Dropout) (None, 13, 160) 0 ________________________________________________________________________________________________________________________ time_distributed_1 (TimeDistributed) (None, 13, 72) 11592 ________________________________________________________________________________________________________________________ dense_2_dropout (Dropout) (None, 13, 72) 0 ________________________________________________________________________________________________________________________ time_distributed_2 (TimeDistributed) (None, 13, 40) 2920 ________________________________________________________________________________________________________________________ dense_1_dropout (Dropout) (None, 13, 40) 0 ________________________________________________________________________________________________________________________ time_distributed_3 (TimeDistributed) (None, 13, 12) 492 ________________________________________________________________________________________________________________________ dense_0_dropout (Dropout) (None, 13, 12) 0 ________________________________________________________________________________________________________________________ time_distributed_4 (TimeDistributed) (None, 13, 1) 13 ======================================================================================================================== Total params: 285,225 Trainable params: 285,225 Non-trainable params: 0 ________________________________________________________________________________________________________________________ . And here is a visual plot of the model: . .",
            "url": "https://braibaud.github.io/blog/lstm/keras/keras%20tuner/python/machine%20learning/timeseries/2021/05/31/LSTM-timeseries-forecasting-with-Keras-Tuner.html",
…
